app/gcn_model1.pth (torch, 4392 bytes, 4 tensors)

conv1.bias f4 [8]
-0.10829904 -0.10976816 0.13282281 -0.097342856 0.123733476 0.12792031 0.1331734 -0.10907361
00000000: e3cb ddbd 21ce e0bd b402 083e b15b c7bd
00000010: fa67 fd3d 8bfd 023e 9c5e 083e fc61 dfbd

conv1.lin.weight f4 [8, 64]
0.17237695 0.025299277 0.04252066 0.0059570908 -0.11353681 0.024450054 0.01198015 -0.13084085
-0.11498281 -0.052370537 -0.16110486 0.04846729 -0.02947905 0.07326724 0.07746728 0.025398022
-0.037005592 0.02771555 -0.049369883 -0.14017719 0.16832004 0.09649608 -0.07678823 -0.13073245
-0.0031171825 0.13837658 0.025229935 0.035788395 0.011823597 -0.038376745 0.087335065 0.0830548
0.048080094 0.028141377 -0.05419754 -0.08585824 -0.13433857 -0.066528454 0.14463913 0.14917642
0.12712808 0.016892644 -0.021264281 0.15656266 -0.105737805 0.006196351 -0.14024234 0.054817524
0.08833998 -0.11396386 -0.12051645 0.07776057 -0.094093546 0.041887563 0.09482848 -0.08471755
0.12899572 0.026573068 0.008756873 -0.1340091 0.03858709 0.075529054 0.18330187 -0.06298691
0.07701524 0.0007790919 -0.07308348 -0.017628407 -0.028691163 -0.0874649 0.0556531 0.092561245
0.018926766 -0.007421802 0.024183448 -0.019857222 0.12909071 0.08354189 0.15941767 -0.024110867
0.068109214 0.18062066 -0.11131674 0.06950364 -0.02364113 0.022694895 -0.110299945 0.11551122
-0.051648095 0.06172443 -0.15331607 -0.008150929 -0.022656607 -0.07107383 -0.06422184 0.03149408
0.08901784 0.034142777 0.039665833 0.06072153 0.032410692 0.085395165 0.030297883 0.00069353695
-0.14734161 -0.032884177 0.16102748 -0.17824943 0.15026526 0.017192505 -0.07518389 -0.08964108
0.13105658 0.10899473 -0.017012289 -0.10530793 0.08061478 0.050559856 0.16979414 -0.14418955
-0.0627616 -0.12637487 -0.08777409 -0.0218967 -0.11175576 -0.13870843 -0.013005677 -0.017464573
0.080048524 -0.15766317 0.14807743 -0.072796255 -0.030951986 0.029573245 0.09806322 -0.048015572
-0.08276541 0.14394085 0.0073431386 -0.099426 -0.10869745 -0.015477841 0.14167874 -0.016766246
-0.087005444 -0.12059651 0.17825475 -0.030000653 0.08024495 0.1897606 0.034084186 0.078336686
0.042075694 -0.07878 0.120065495 0.14778703 0.13795847 0.18902825 -0.02397969 -0.13608004
0.05098942 0.038542308 -0.03424053 0.12752552 0.06134836 0.18616441 -0.09618688 -0.041347425
-0.1779136 0.067842856 0.0085254945 -0.11013826 0.02052241 -0.012660617 -0.038365357 -0.14511631
0.11259667 -0.06490135 0.13283421 -0.18625626 0.10245229 0.03804447 -0.20597082 -0.071921855
0.15910509 -0.1170319 0.015389855 0.048796043 -0.020857183 -0.01949781 -0.16483706 -0.120957196
-0.16401704 0.023873761 0.14696342 -0.01772066 -0.13870779 0.093478054 0.028015168 -0.06988874
0.041205857 -0.003214775 0.005436159 -0.10038232 0.029024923 0.0019276902 0.03635539 0.14994445
0.024314381 0.08263621 0.15299875 -0.02123095 -0.110340245 -0.110726155 0.04270166 -0.016200114
0.008925897 0.02379178 -0.11085811 0.016580286 -0.00040170457 -0.12192804 -0.035390474 -0.02150528
0.12203849 -0.13495298 0.12818919 0.049137417 -0.039827015 -0.026351472 -0.041130632 -0.10061237
-0.049249623 -0.02569483 -0.041548133 0.10160264 0.15247798 -0.011876623 -0.018597394 -0.032436676
0.020077411 0.10358593 0.09292948 0.081042565 -0.031459644 0.03322902 -0.15334006 0.019386705
0.05416799 0.14577445 -0.004296103 -0.025378479 0.02394499 0.057430845 0.011251058 -0.010488986
00000000: 9583 303e 6e40 cf3c 252a 2e3d b333 c33b
00000010: fd85 e8bd 7b4b c83c 6448 443c 25fb 05be
00000020: 1c7c ebbd 7d82 56bd acf8 24be a385 463d
00000030: 0c7e f1bc 220d 963d 2aa7 9e3d 830f d03c
00000040: 2d93 17bd b90b e33c 1338 4abd 9c8a 0fbe
00000050: 175c 2c3e bd9f c53d 2643 9dbd bade 05be
00000060: a549 4cbb 97b2 0d3e 02af ce3c da96 123d
00000070: c3b7 413c ef30 1dbd badc b23d a318 aa3d
00000080: a2ef 443d bf88 e63c 3dfe 5dbd 72d6 afbd
00000090: 0d90 09be 1240 88bd 481c 143e b4c1 183e
000000a0: dd2d 023e 7162 8a3c 6e32 aebc f651 203e
000000b0: 108d d8bd c20a cb3b b09b 0fbe 5788 603d
000000c0: 97eb b43d e265 e9bd 54d1 f6bd ef40 9f3d
000000d0: 1eb4 c0bd 4b92 2b3d 6f35 c23d 6580 adbd
000000e0: 7417 043e c3af d93c fd78 0f3c ae39 09be
000000f0: 7f0d 1e3d faae 9a3d 7cb3 3b3e 48ff 80bd
00000100: 2bba 9d3d f93b 4c3a cbac 95bd 7369 90bc
00000110: bb09 ebbc cc20 b3bd 81f4 633d c090 bd3d
00000120: 4e0c 9b3c 9632 f3bb 5e1c c63c 9dab a2bc
00000130: 5b30 043e 0318 ab3d 633e 233e 2784 c5bc
00000140: d87c 8b3d 9ff4 383e 08fa e3bd ed57 8e3d
00000150: 0bab c1bc a5ea b93c f0e4 e1bd 2691 ec3d
00000160: f48c 53bd c2d2 7c3d e3fe 1cbe 798b 05bc
00000170: 599a b9bc 288f 91bd bd86 83bd f0ff 003d
00000180: fc4e b63d 4cd9 0b3d a478 223d 24b7 783d
00000190: 13c1 043d a9e3 ae3d 4433 f83c 7ace 353a
000001a0: b8e0 16be 8fb1 06bd 63e4 243e 0587 36be
000001b0: 23df 193e 4cd7 8c3c 03fa 99bd be95 b7bd
000001c0: b233 063e a138 df3d 5b5d 8bbc afab d7bd
000001d0: 5d19 a53d da17 4f3d 84de 2d3e 6da6 13be
000001e0: 2789 80bd 6a68 01be e7c2 b3bd b560 b3bc
000001f0: 34e0 e4bd 9509 0ebe c315 55bc dd11 8fbc
00000200: 7bf0 a33d 7472 21be 9ca1 173e 3416 95bd
00000210: 058f fdbc 9743 f23c 5fd5 c83d faab 44bd
00000220: e980 a9bd 3b65 133e b69e f03b dc9f cbbd
00000230: c59c debd c596 7dbc 3b14 113e 5e59 89bc
00000240: e92f b2bd 4efb f6bd 6a88 363e eec3 f5bc
00000250: 7757 a43d 9a50 423e dc9b 0b3d fc6e a03d
00000260: 9057 2c3d 6957 a1bd e6e4 f53d 7c55 173e
00000270: fc44 0d3e 9f90 413e 0e71 c4bc 9158 0bbe
00000280: 48da 503d 8ade 1d3d cc3f 0cbd 0d96 023e
00000290: 6b48 7b3d e2a1 3e3e a0fd c4bd eb5b 29bd
000002a0: fc2e 36be 32f1 8a3d 84ae 0b3c 2b90 e1bd
000002b0: 9d1e a83c 7a6e 4fbc fe24 1dbd 5f99 14be
000002c0: 1599 e63d 00eb 84bd b105 083e f6b9 3ebe
000002d0: 82d2 d13d 85d4 1b3d 04ea 52be c44b 93bd
000002e0: 72ec 223e 6cae efbd bb25 7c3c 5cde 473d
000002f0: afdc aabc dfb9 9fbc 0ccb 28be 68b8 f7bd
00000300: 15f4 27be e892 c33c 947d 163e eb2a 91bc
00000310: 6a09 0ebe 6c71 bf3d 1180 e53c d421 8fbd
00000320: 79c7 283d f9ae 52bb cf21 b23b 3f95 cdbd
00000330: adc5 ed3c 8daa fc3a 64e9 143d 0a8b 193e
00000340: f42e c73c 2c3d a93d b4ab 1c3e 87ec adbc
00000350: 11fa e1bd 65c4 e2bd f0e7 2e3d 1ab6 84bc
00000360: ed3d 123c fbe6 c23c 9409 e3bd 61d3 873c
00000370: e09b d2b9 69b5 f9bd 9af5 10bd d72b b0bc
00000380: 51ef f93d 1d31 0abe 0744 033e 5144 493d
00000390: a721 23bd 0bdf d7bc 9878 28bd dc0d cebd
000003a0: f9b9 49bd f77d d2bc 602e 2abd 0b15 d03d
000003b0: 3023 1c3e 2b96 42bc 9059 98bc 52dc 04bd
000003c0: 6279 a43c dc24 d43d d051 be3d a5f9 a53d
000003d0: d4db 00bd 271b 083d 2d05 1dbe ded0 9e3c
000003e0: 41df 5d3d e645 153e 53c6 8cbb 87e6 cfbc
000003f0: 4928 c43c 9b3c 6b3d 5c56 383c ffd9 2bbc

conv2.bias f4 [2]
-0.12887485 0.12887485
00000000: c5f7 03be c5f7 033e

conv2.lin.weight f4 [2, 8]
-0.18995127 0.1203309 -0.6592742 0.3591638 -0.49108228 -0.14651455 -0.51098335 0.4345996
-0.39044595 -0.5894931 -0.3725256 0.38139483 0.85545576 0.105384566 -0.19590575 -0.10205898
00000000: 9682 42be 0c70 f63d 32c6 28bf 51e4 b73e
00000010: 236f fbbe e907 16be cecf 02bf d783 de3e
00000020: 88e8 c7be 05e9 16bf adbb bebe 2f46 c33e
00000030: 26ff 5a3f ddd3 d73d 849b 48be 4c04 d1bd
