app/gcn_model.pth (torch, 4384 bytes, 4 tensors)

conv1.bias f4 [8]
-0.11435507 0.14561316 0.16142899 0.14660215 -0.12885346 0.1434752 0.14371467 0.15700406
00000000: fe32 eabd 9e1b 153e a44d 253e e01e 163e
00000010: 29f2 03be 2aeb 123e f029 133e acc5 203e

conv1.lin.weight f4 [8, 64]
0.15872036 0.15261698 -0.06914497 0.14479674 -0.0007456285 -0.078150004 0.010957957 -0.003512876
-0.0722365 -0.00824363 0.03225288 -0.011811264 -0.112178184 0.06293231 -0.012980283 -0.13694417
-0.03127348 0.009147135 -0.009254132 0.060919117 -0.059774607 -0.0052316226 0.16401684 -0.1509898
-0.03155616 0.09732856 -0.1313528 0.036381267 0.010426515 -0.017043171 -0.14260964 0.13298903
0.081809364 -0.032911316 -0.043909278 0.058938127 -0.02152577 0.08832561 -0.12524591 0.022492783
0.048363127 0.0335668 -0.03482021 0.04228059 0.07564818 0.030203735 -0.018632753 -0.02248454
0.13508204 0.015035508 -0.12812963 0.06562946 0.07865323 0.0897618 -0.14322305 0.024866965
0.010858482 -0.1613219 -0.036290932 -0.13775899 0.009632994 0.00315797 -0.05587519 0.019692026
-0.3085235 -0.35179016 -0.060561605 -0.24914719 0.3738237 -0.1890226 0.12772149 0.20685466
-0.38974553 0.2595696 0.03770899 -0.3053702 -0.25538644 0.10646081 -0.4166395 -0.2079468
0.27235574 -0.12284598 -0.032703113 0.13580123 0.06308372 -0.37915856 -0.26350135 -0.12374819
-0.37727973 0.100700505 -0.34648228 0.29075703 -0.050344706 -0.1690675 -0.041623186 0.29170755
-0.13139868 -0.20730223 -0.40024233 0.06998828 -0.23688063 -0.41066772 -0.028135264 0.34565338
-0.16518909 -0.37254098 -0.07913245 0.41391554 0.14402336 0.016735584 0.15612079 0.077262886
-0.07256855 -0.24264783 -0.22366065 0.34799185 0.40888536 0.33922324 0.41979393 -0.23677608
-0.010166871 -0.21056412 -0.30897045 -0.37859932 -0.13819584 -0.110345684 -0.024669621 0.34493348
0.40337065 0.41152087 -0.28886768 0.19218521 -0.08039598 0.4030364 0.08106566 0.061592333
-0.2174591 0.16556588 -0.4213312 0.43618628 -0.24900143 0.063124895 -0.33391356 -0.12772083
-0.3561877 -0.38433853 0.14419377 0.23959559 0.0370016 0.30605444 -0.39011425 -0.28871137
0.10593505 0.09897693 -0.31092373 0.2851246 -0.35926285 -0.33146146 -0.25739285 -0.18690014
-0.057236016 -0.38848853 -0.1946392 -0.27636757 -0.25133166 -0.03678823 -0.29369995 0.12481083
0.26518708 0.28549582 -0.39486298 -0.16978909 -0.26206183 -0.37442437 0.3386773 0.34273282
-0.060689155 0.41943434 -0.41086647 -0.122927144 -0.046345346 -0.41302463 -0.12771456 -0.21881679
0.35996276 0.18415749 0.16721833 0.29140386 0.22527522 -0.15222384 -0.36312348 -0.28059107
0.15459892 -0.2871399 -0.1292879 0.290851 0.3165428 -0.2170833 0.342965 0.16737884
-0.32525015 -0.16470784 0.21385473 0.1899012 -0.16238481 0.14062677 0.26208502 0.30761227
0.0709738 0.1782637 0.19551587 -0.0947922 0.39674622 0.29373333 0.34466556 -0.13922662
-0.26719245 -0.31119898 -0.29810828 0.3981681 0.31241706 -0.17665401 -0.059062008 0.26905373
-0.26803178 -0.12486695 -0.15704459 0.09704618 0.30641815 0.3157649 0.38097522 -0.1816725
0.28037912 0.31672537 0.3495162 0.038060334 0.08723314 0.21407141 -0.3977398 -0.3406172
0.26692098 0.12999347 0.30181205 0.31891528 -0.09314499 0.016478246 -0.22507991 -0.11971905
-0.1633059 -0.32024807 0.20851973 0.35598925 0.34418747 -0.063797034 0.07325547 -0.27508992
00000000: 9787 223e a047 1c3e e19b 8dbd 9945 143e
00000010: 4876 43ba 1c0d a0bd 0189 333c 4838 66bb
00000020: bbf0 93bd 4a10 07bc 991b 043d 0884 41bc
00000030: adbd e5bd a8e2 803d 41ab 54bc 183b 0cbe
00000040: 9f18 00bd dddd 153c a59e 17bc 5386 793d
00000050: 38d6 74bd 086e abbb 08f4 273e 129d 1abe
00000060: 0841 01bd 3254 c73d 5981 06be 8604 153d
00000070: f9d3 2a3c 1f9e 8bbc 4308 12be 472e 083e
00000080: ab8b a73d 04ce 06bd 37da 33bd 1b69 713d
00000090: d056 b0bc 0fe4 b43d 7740 00be c942 b83c
000000a0: 6a18 463d 577d 093d a39f 0ebd 692e 2d3d
000000b0: 6fed 9a3d d36d f73c b7a3 98bc 7f31 b8bc
000000c0: f252 0a3e 7e57 763c 6a34 03be bd68 863d
000000d0: f214 a13d 09d5 b73d 10a9 12be ceb5 cb3c
000000e0: c6e7 313c 9131 25be cda5 14bd b110 0dbe
000000f0: b5d3 1d3c f2f5 4e3b 62dd 64bd 2c51 a13c
00000100: cbf6 9dbe d71d b4be 720f 78bd 7120 7fbe
00000110: d265 bf3e 248f 41be 6cc9 023e b5d1 533e
00000120: ba8c c7be 4ee6 843e be74 1a3d 7c59 9cbe
00000130: 03c2 82be 2008 da3d c651 d5be 02f0 54be
00000140: 3672 8b3e ac96 fbbd b3f3 05bd 7a0f 0b3e
00000150: 0a32 813d 1221 c2be a6e9 86be b16f fdbd
00000160: cf2a c1be 113c ce3d 2066 b1be 1bde 943e
00000170: 4036 4ebd 0820 2dbe 137d 2abd b15a 953e
00000180: 608d 06be 0947 54be 90ec ccbe 0456 8f3d
00000190: d690 72be 0a43 d2be ed7b e6bc 7bf9 b03e
000001a0: 5427 29be b1bd bebe 3210 a2bd bdec d33e
000001b0: dc7a 133e 1019 893c 21de 1f3e 013c 9e3d
000001c0: d29e 94bd ac78 78be 4c07 65be fd2b b23e
000001d0: 6c59 d13e abae ad3e 3bef d63e 6e75 72be
000001e0: f392 26bc 1f9e 57be 6031 9ebe c5d7 c1be
000001f0: 3683 0dbe ebfc e1bd f217 cabc 1f9b b03e
00000200: 9986 ce3e ddb2 d23e 77e6 93be 33cc 443e
00000210: a6a6 a4bd c95a ce3e c105 a63d 3e48 7c3d
00000220: 99ad 5ebe 1a8a 293e b9b8 d7be cf53 df3e
00000230: 3bfa 7ebe a047 813d b8f6 aabe 40c9 02be
00000240: 3c5e b6be 05c8 c4be 88a7 133e 8c58 753e
00000250: fd8e 173d 2bb3 9c3e 0ebd c7be fad1 93be
00000260: 7af4 d83d 6bb4 ca3d 6531 9fbe dafb 913e
00000270: 4df1 b7be 51b5 a9be ffc8 83be c062 3fbe
00000280: 5070 6abd f8e7 c6be 804f 47be 0d80 8dbe
00000290: 8bae 80be 41af 16bd d75f 96be d29c ff3d
000002a0: 9ac6 873e 822c 923e 7b2b cabe 31dd 2dbe
000002b0: f82c 86be 8db4 bfbe 1c67 ad3e ad7a af3e
000002c0: 3195 78bd 19c0 d63e 175d d2be 3ac1 fbbd
000002d0: 9ed4 3dbd f777 d3be 9bc7 02be 8211 60be
000002e0: 0a4d b83e c893 3c3e 483b 2b3e e332 953e
000002f0: 8cae 663e 91e0 1bbe 52eb b9be a2a9 8fbe
00000300: 2e4f 1e3e 0004 93be 0c64 04be 6cea 943e
00000310: e611 a23e 164b 5ebe 1c99 af3e 5c65 2b3e
00000320: 3087 a6be 2ca9 28be bcfc 5a3e 7675 423e
00000330: 3448 26be 7700 103e 0230 863e 5b7f 9d3e
00000340: b65a 913d c28a 363e 5035 483e 6a22 c2bd
00000350: 5222 cb3e 3764 963e 0178 b03e 6c91 0ebe
00000360: 73cd 88be 7955 9fbe a6a1 98be b0dc cb3e
00000370: 21f5 9f3e cae4 34be 01eb 71bd 69c1 893e
00000380: 763b 89be 3eba ffbd 4cd0 20be 26c0 c63d
00000390: d7e2 9c3e f0ab a13e 2f0f c33e 5b08 3abe
000003a0: da8d 8f3e d429 a23e caf3 b23e 27e5 1b3d
000003b0: 4aa7 b23d 8935 5b3e 8da4 cbbe 6165 aebe
000003c0: dea9 883e 021d 053e 1c87 9a3e dd48 a33e
000003d0: cdc2 bebd 63fd 863c 597b 66be 432f f5bd
000003e0: a939 27be 8ef7 a3be 3286 553e 3944 b63e
000003f0: 5739 b03e 05a8 82bd f706 963d 96d8 8cbe

conv2.bias f4 [2]
-0.15582713 0.15582715
00000000: 2691 1fbe 2791 1f3e

conv2.lin.weight f4 [2, 8]
-0.50677294 -0.41559625 0.36894864 -0.2613123 -0.37860763 -0.36805862 -0.38718593 0.35358092
-0.4487349 0.43371004 0.6911394 0.38371184 -0.45082712 0.6626729 0.6007697 0.74513525
00000000: dfbb 01bf 08c9 d4be d6e6 bc3e baca 85be
00000010: dcd8 c1be 2e72 bcbe 3c3d c6be 8f08 b53e
00000020: 95c0 e5be 3e0f de3e 83ee 303f e175 c43e
00000030: d0d2 e6be eea4 293f 0bcc 193f 2fc1 3e3f
